models/02_blob_model.pth (torch, 3332 bytes, 6 tensors)

layers.0.weight f4 [10, 2]
-0.80225915 -0.3585359 -0.64469236 -0.0037753258 -0.8488261 0.7163615 0.0668564 0.86571157
0.55106896 -0.16158813 0.84962374 0.18937847 -0.510301 -0.8683534 -0.80618024 -0.034174003
0.021216325 0.50830364 -0.38185674 0.80111533
00000000: db60 4dbf 0492 b7be 8f0a 25bf 756b 77bb
00000010: ab4c 59bf 7863 373f 02ec 883d 469f 5d3f
00000020: db12 0d3f 5c77 25be f180 593f 6eec 413e
00000030: 16a3 02bf 694c 5ebf d461 4ebf 0afa 0bbd
00000040: dccd ad3c 3020 023f ba82 c3be e515 4d3f

layers.0.bias f4 [10]
-0.47012252 -0.42014983 -0.35542873 1.6121807 1.0193723 1.098525 -0.29087508 -0.5586377
0.11240545 0.5777634
00000000: e6b3 f0be e11d d7be c1fa b5be f05b ce3f
00000010: cb7a 823f 789c 8c3f 94ed 94be e102 0fbf
00000020: d434 e63d 4de8 133f

layers.2.weight f4 [10, 10]
-0.32837674 0.18125564 -0.36314592 0.287088 0.45548913 0.41845107 -0.2309535 0.17180686
-0.02518799 -0.07212815 -1.1022769 -0.055913907 -0.25891942 0.18583398 0.62062705 0.40203586
0.09156782 -0.372759 0.17028113 0.2649893 -0.30569956 -0.3612006 -0.19936153 0.028335758
0.35475934 0.46681046 0.038142 -0.08414369 0.2804742 0.108454265 -0.23811798 -0.0010962012
0.3994055 0.3171401 -0.27011544 -0.48743543 -0.08897154 0.015051029 0.120255634 0.43312028
0.48003247 0.16471504 -0.1848006 -0.18748613 0.15714525 -0.12706384 0.30874294 -0.08935584
-0.2918113 0.14022161 0.33045873 0.17902394 -0.15976772 -0.47323543 -0.107394524 0.4206021
0.32613906 0.39650428 -0.10306035 -0.29341224 0.12128001 0.27249727 0.5682765 -0.2159128
-0.2896599 -0.074272625 -1.0705546 0.051649626 0.39508685 0.054410823 -0.45181525 -0.69333535
0.4036158 0.5256295 -0.6418273 -0.6234016 -0.38022327 -0.382731 0.45889848 0.3804031
0.5837731 0.5234321 0.32084563 -0.16825527 -0.06477593 -0.81915534 -0.1180799 0.43215525
-0.08288276 0.09834709 -0.22967663 -0.066642895 -0.12119983 0.22778314 0.31615704 0.29157645
0.11340421 -0.051862005 -0.2507311 0.14295371
00000000: ff20 a8be 149b 393e 43ee b9be 33fd 923e
00000010: df35 e93e 383f d63e 137f 6cbe 23ee 2f3e
00000020: 0b57 cebc ecb7 93bd 6917 8dbf fb05 65bd
00000030: 1691 84be 434b 3e3e 6ae1 1e3f a5d7 cd3e
00000040: e987 bb3d 45da bebe 2d5e 2e3e adac 873e
00000050: a784 9cbe 49ef b8be 6e25 4cbe 6420 e83c
00000060: 04a3 b53e c801 ef3e c93a 1c3d 8753 acbd
00000070: 509a 8f3e 451d de3d 33d5 73be 69ae 8fba
00000080: e17e cc3e 3060 a23e 924c 8abe 2391 f9be
00000090: b636 b6bd 9798 763c 9648 f63d f1c1 dd3e
000000a0: d1c6 f53e 0fab 283e 5e3c 3dbe 5dfc 3fbe
000000b0: afea 203e 061d 02be 8e13 9e3e 3200 b7bd
000000c0: 4a68 95be 4196 0f3e e331 a93e 0d52 373e
000000d0: 269a 23be ea4b f2be a9f1 dbbd 2959 d73e
000000e0: b3fb a63e 9c02 cb3e 4e11 d3bd 213a 96be
000000f0: a761 f83d c384 8b3e 927a 113f 3f18 5dbe
00000100: 4d4e 94be 3f1c 98bd ef07 89bf 8f8e 533d
00000110: d348 ca3e e2dd 5e3d 5454 e7be 6d7e 31bf
00000120: bba6 ce3e a88f 063f cb4e 24bf 3f97 1fbf
00000130: a0ac c2be 51f5 c3be bef4 ea3e 32c4 c23e
00000140: 2772 153f a5ff 053f e145 a43e 1c4b 2cbe
00000150: 3ea9 84bd 2ab4 51bf e0d3 f1bd 7443 dd3e
00000160: 70be a9bd 336a c93d 5a30 6bbe 127c 88bd
00000170: 9e37 f8bd fc3f 693e 56df a13e 8249 953e
00000180: 7740 e83d 416d 54bd d45f 80be 7562 123e

layers.2.bias f4 [10]
0.16834201 0.24260432 0.010150911 0.20357974 -0.014504016 0.36165136 -0.18655325 0.657961
-0.7179173 0.74364465
00000000: d961 2c3e 446d 783e 0250 263c 3577 503e
00000010: 41a2 6dbc 5e2a b93e d107 3fbe 2270 283f
00000020: 6ec9 37bf 7f5f 3e3f

layers.4.weight f4 [4, 10]
-0.48464862 -0.044053026 -0.22573926 0.07779086 -0.19894068 -0.27722114 -0.18832918 0.49994725
-0.6985686 0.0019404928 0.5366449 0.6593502 0.2896749 -0.46107265 -0.15688132 -0.05404723
-0.6576305 -0.2715653 -0.43967816 0.44450435 -0.38205233 -0.4511644 -0.32395792 -0.49321485
0.49403742 0.50442696 -0.24466991 -0.22056878 0.070336096 -0.55343044 -0.29112506 -0.3506803
-0.47647583 -0.060972698 -0.2891225 -0.38069397 0.20093615 -0.018653665 0.28422815 -0.8824683
00000000: dd23 f8be f270 34bd 3128 67be d050 9f3d
00000010: 1bb7 4bbe eeef 8dbe 5dd9 40be 16f9 ff3e
00000020: 64d5 32bf 2258 fe3a 8f61 093f 2dcb 283f
00000030: 4550 943e b711 ecbe 7fa5 20be a160 5dbd
00000040: 795a 28bf 9b0a 8bbe 7f1d e1be 1396 e33e
00000050: 5d9c c3be 05ff e6be d0dd a5be a886 fcbe
00000060: 79f2 fc3e 2022 013f c08a 7abe c8dc 61be
00000070: 5f0c 903d 9ead 0dbf 580e 95be 5e8c b3be
00000080: a4f4 f3be 82be 79bd dd07 94be 52ea c2be
00000090: 35c2 4d3e 92cf 98bc 5a86 913e 71e9 61bf

layers.4.bias f4 [4]
-0.22523765 0.04443296 0.016930917 -0.39205557
00000000: b3a4 66be 56ff 353d b5b2 8a3c 82bb c8be
