models/02_circle_model_v1.pth (torch, 2870 bytes, 5 tensors)

layers.0.weight f4 [5, 2]
000000 48 d4 a9 bd 86 0b 93 be 73 89 f4 bf 98 17 54 c0
       -0.082924426 -0.2871973 -1.9104446 -3.31394
000010 b3 5c 01 c0 16 1c 76 c0 d4 fb 83 c0 b4 5a 3a be
       -2.021283 -3.8454642 -4.1244907 -0.18198663
000020 0d 68 4a c0 2c 58 bf bd
       -3.1626008 -0.09342989

layers.0.bias f4 [5]
000000 2a c5 19 bf b2 81 67 40 0b cb 0a be 80 e0 b2 be
       -0.60066473 3.617291 -0.13554017 -0.34936905
000010 9e 13 3d 40
       2.9543223

layers.2.weight f4 [5, 5]
000000 20 be 8e 3d b3 72 0f 3e 26 83 b8 bd 92 6c 10 be
       0.06969857 0.14008598 -0.090093896 -0.14103916
000010 4a 19 e9 bd 18 5f f8 bd 3c 6d 6b 3e c1 0f 19 40
       -0.11381777 -0.12127513 0.22990888 2.3915865
000020 e6 1f 51 40 86 e7 60 c0 a0 2d 84 3e 42 7a 77 be
       3.267572 -3.514131 0.2581606 -0.24167731
000030 e8 65 48 40 78 3e 27 40 5b 7e 5f c0 ba ee 30 be
       3.1312199 2.6131878 -3.4920871 -0.17278567
000040 4e 4e 89 c0 65 71 66 40 11 d4 78 40 d1 b0 29 3f
       -4.2908087 3.600671 3.8879435 0.66285425
000050 ac d4 10 3e 8d f4 fe bd d2 e3 6f 3e 35 97 d4 be
       0.14143628 -0.12448988 0.2342675 -0.41521612
000060 4a 65 aa bd
       -0.083201006

layers.2.bias f4 [5]
000000 dd 37 fb be bb 43 6c 3f ac d0 05 40 68 f5 d0 3f
       -0.49066058 0.9229085 2.0908613 1.6324892
000010 3a 8b 58 be
       -0.2114686

layers.4.weight f4 [1, 5]
000000 2f a2 7a 3e 83 44 58 c0 4e 49 6d c0 17 07 83 c0
       0.2447593 -3.3791816 -3.7075992 -4.0946155
000010 e6 2f 9c 3e
       0.30505294
