models/02_circle_model_v1.pth (torch, 3126 bytes, 5 tensors)

layers.0.weight f4 [8, 2]
0.7876462 0.5015816 0.35175502 -3.2305498 -2.0333338 -2.6726246 -3.3399184 0.8693252
-0.825493 2.774497 -1.6800811 2.6954794 -1.5206693 0.20263131 3.1904082 0.9721951
00000000: 2ea3 493f a767 003f 3c19 b43e 54c1 4ec0
00000010: 2422 02c0 480c 2bc0 39c1 55c0 198c 5e3f
00000020: 8253 53bf 5c91 3140 e60c d7bf bc82 2c40
00000030: 4ba5 c2bf 957e 4f3e a62f 4c40 c7e1 783f

layers.0.bias f4 [8]
1.0687836 -0.7496775 -0.21568611 -0.17480363 -1.453774 0.53578407 3.5621176 0.10014785
00000000: e7cd 883f ddea 3fbf d2dc 5cbe b9ff 32be
00000010: 4415 babf 2529 093f bcf9 6340 511a cd3d

layers.2.weight f4 [8, 8]
-0.15456383 0.2040939 0.06325996 0.1795468 -0.21549258 -0.34998548 -0.13659908 -0.27118352
-0.4378138 1.4202911 1.6342238 1.4156452 1.6086874 1.1666795 -1.6027908 0.2899434
-1.4783714 1.7036092 1.5612173 1.4160078 1.4908159 1.38506 -1.5229119 -1.021814
0.008383927 1.9519452 2.1512969 2.1106584 2.253287 1.3730989 -2.1450605 2.1241763
-0.11272816 1.9669791 1.94087 1.9471272 1.9178917 1.3004684 -1.8075902 2.1559386
-0.22270954 2.241726 2.087703 2.216668 2.1799338 1.4335636 -2.0468206 2.4120815
0.24034885 -0.2563875 -0.18875091 0.3237354 -0.11930041 -0.12534046 -0.34209636 -0.2024695
0.088318944 -0.046666622 -0.25663945 0.008293182 -0.24150577 -0.29995352 -0.19468863 -0.30943418
00000000: fb45 1ebe fefd 503e 708e 813d 1edb 373e
00000010: 16aa 5cbe 4c31 b3be a1e0 0bbe 91d8 8abe
00000020: 2129 e0be 19cc b53f 3f2e d13f dd33 b53f
00000030: 78e9 cd3f c155 953f 4028 cdbf 7673 943e
00000040: 463b bdbf de0f da3f f8d5 c73f be3f b53f
00000050: 0ed3 be3f a549 b13f c7ee c2bf cdca 82bf
00000060: bd5c 093c 57d9 f93f d9ae 0940 0715 0740
00000070: db35 1040 b4c1 af3f ac48 09c0 81f2 0740
00000080: 06de e6bd f9c5 fb3f 6e6e f83f 773b f93f
00000090: 7a7d f53f c075 a63f 1e5f e7bf e6fa 0940
000000a0: f80d 64be 7078 0f40 ed9c 0540 e3dd 0d40
000000b0: 0984 0b40 037f b73f 1cff 02c0 8b5f 1a40
000000c0: 021e 763e 3945 83be eb47 41be a5c0 a53e
000000d0: c653 f4bd 4059 00be 4127 afbe 2a54 4fbe
000000e0: 90e0 b43d 8025 3fbd 3f66 83be 20e0 073c
000000f0: 4a4d 77be 8293 99be 755c 47be 286e 9ebe

layers.2.bias f4 [8]
-0.2251209 -0.5504901 -0.70676774 -1.13496 -1.7958248 -1.7708107 -0.11768231 0.055285543
00000000: 1886 66be ebec 0cbf bbee 34bf 5f46 91bf
00000010: 96dd e5bf eda9 e2bf 6c03 f1bd 1873 623d

layers.4.weight f4 [1, 8]
-0.31109917 -1.3623285 -1.953612 -5.2083454 -2.7605731 -2.6825001 -0.23957828 -0.24267733
00000000: 6448 9fbe c860 aebf f50f fabf c4aa a6c0
00000010: 3bad 30c0 15ae 2bc0 0254 75be 6880 78be
