models/03_fashion_mnist_model.pt (torch, 35082 bytes, 10 tensors)

conv_block_1.0.weight f4 [10, 1, 3, 3]
0	0xbda74f8c	-0.08169469
1	0xbc9a2c25	-0.018819878
2	0xbed3282d	-0.4124159
3	0xbde7ae55	-0.11312548
4	0xbeb5320a	-0.3538974
5	0xbeda08c1	-0.42584804
6	0xbf12b355	-0.5730489
7	0x3d38a21a	0.045076467
8	0x3dd0dd4f	0.10198461
9	0xbe5912da	-0.21198598
10	0x3f04ec13	0.5192272
11	0x3e4a7cac	0.19774121
12	0xbf1fa6ea	-0.62364066
13	0xbe4613eb	-0.19343536
14	0x3f5c02fe	0.85942066
15	0xbf0d1452	-0.5510913
16	0x3e620759	0.22073115
17	0x3f44650e	0.767167
18	0xbe3a9412	-0.18220547
19	0x3e009ae2	0.12559083
20	0x3e900157	0.28126022
21	0xc033345b	-2.8000705
22	0xbfd66259	-1.6748763
23	0x3d419844	0.047264352
24	0xc03e9f7c	-2.9784842
25	0xc02ce716	-2.7016044
26	0xbef0a98c	-0.47004354
27	0xbf2a1627	-0.6644005
28	0xc06a5e66	-3.6620116
29	0xc0485d13	-3.1306808
30	0xbf3baa04	-0.733063
31	0xbf265aa4	-0.64982057
32	0x3da65578	0.081217706
33	0x3ea4f293	0.3221632
34	0x3e6f4835	0.23367389
35	0x3d1144c3	0.035465967
36	0xbf7c871c	-0.9864366
37	0x3e60a945	0.21939571
38	0xbe266872	-0.1625078
39	0xbf5bddd8	-0.8588538
40	0x3d8a7a67	0.06761628
41	0xbf072cc1	-0.52802664
42	0xbf2907ec	-0.6602771
43	0x3da4c4fd	0.08045385
44	0xbee27f5d	-0.44237795
45	0x3ec5d1b4	0.38636553
46	0x3e15c26c	0.14624947
47	0xbd6e71c6	-0.05821397
48	0x3e7126ae	0.23549911
49	0xbece24fa	-0.40262586
50	0xc0094ef0	-2.145443
51	0xbf419a28	-0.7562585
52	0xbfceaa7d	-1.6145779
53	0xbf53d07e	-0.8274001
54	0xbdf21347	-0.11820083
55	0xbd74da44	-0.059778467
56	0xbdf7d99a	-0.12102051
57	0xbe1474c8	-0.14497674
58	0x3d2f199d	0.042749036
59	0xbf0f3b17	-0.5594954
60	0xbe4ea3f1	-0.20179726
61	0xbedc67af	-0.43047854
62	0xbe2527a7	-0.16128407
63	0xbeeba020	-0.46020603
64	0xbd7f14ab	-0.06227557
65	0xbf13c312	-0.5771953
66	0x3ea04da6	0.3130924
67	0xbe9fe264	-0.3122741
68	0xbf181755	-0.594106
69	0xbf3f6183	-0.74758166
70	0x3e5bb27d	0.21454807
71	0xbea873ed	-0.32900944
72	0xbd090d69	-0.033460055
73	0xbf1e7c11	-0.6190806
74	0xbfeeab79	-1.8646079
75	0xbe3aa28f	-0.18226074
76	0xbe03d27b	-0.1287326
77	0xbd8d57fe	-0.06901549
78	0xbd4ae7b0	-0.04953736
79	0x3e873758	0.2640941
80	0xbee69429	-0.45034912
81	0xbe7b7d80	-0.24559593
82	0x3e026dea	0.12737241
83	0xbe0f835d	-0.14014955
84	0x3e456b2a	0.19279161
85	0xbdee05ad	-0.11622176
86	0x3e207311	0.15668894
87	0xbe896f80	-0.2684288
88	0xbe2c40f8	-0.16821659
89	0x3d8f3f53	0.069945

conv_block_1.0.bias f4 [10]
0	0xbe165670	-0.14681411
1	0xbe872ebe	-0.2640285
2	0x3ec6da79	0.38838556
3	0x3ea71f42	0.32641035
4	0xbec07878	-0.3759191
5	0x3daeda6a	0.08537753
6	0xbdb48a19	-0.088154025
7	0xbedeafe0	-0.43493557
8	0xbe90a899	-0.2825363
9	0xbeba62a0	-0.3640337

conv_block_1.2.weight f4 [10, 10, 3, 3]
0	0x3e0cb872	0.13742235
1	0x3e30c4a1	0.17262508
2	0x3e27a6b8	0.16372192
3	0x3e0ae71b	0.13564722
4	0x3dc16cae	0.09444557
5	0xbf1725e3	-0.59042186
6	0xbd07c182	-0.033143528
7	0xbe61b99b	-0.22043459
8	0xbea8f7dc	-0.33001602
9	0x3eea799d	0.4579591
10	0xbe24273d	-0.16030593
11	0x3f07772d	0.5291622
12	0xbfabc01c	-1.3418002
13	0xbf94c2c0	-1.1621933
14	0x3d86f030	0.06588781
15	0xbf6349ae	-0.887843
16	0xbfdca260	-1.7237053
17	0xbe7b242d	-0.24525519
18	0xbf0a3500	-0.5398712
19	0xbf087215	-0.53299075
20	0x3ed3a7b2	0.4133888
21	0xbf650d65	-0.89473563
22	0x3ec4cfd8	0.38439822
23	0x3fb6c799	1.4279662
24	0x3f22f292	0.6365138
25	0x3e6f8d3d	0.23393722
26	0xbf1d93ad	-0.6155346
27	0xbf1f4e2e	-0.6222867
28	0xbfd00fb0	-1.6254787
29	0xbeec943a	-0.46206838
30	0xbe4a4f7a	-0.1975688
31	0x3f43d65b	0.76498955
32	0xbf2f174b	-0.6839492
33	0x3ed9435d	0.42434207
34	0x3f3dffc9	0.7421842
35	0xbf80953b	-1.0045542
36	0x3e3ae43d	0.18251128
37	0xbf2fdf22	-0.6869985
38	0xbf28f168	-0.65993357
39	0xbddbc819	-0.10731525
40	0x3e901cf1	0.2814708
41	0xbf802430	-1.0011044
42	0xbf12b477	-0.5730662
43	0xbf43522e	-0.7629727
44	0xbf188ee8	-0.5959306
45	0x3e7566d7	0.23965012
46	0x3e6f674a	0.23379245
47	0xbf7590fd	-0.9592436
48	0x3e8ce856	0.27521008
49	0x3f7ea20b	0.9946601
50	0xbfb25663	-1.3932613
51	0x3e7cac5e	0.24675128
52	0xbf618eba	-0.8810841
53	0x3c5221c5	0.012825434
54	0x3e0d7cef	0.1381719
55	0x3cdab6fe	0.026698586
56	0x3d98c7fc	0.07460019
57	0x3d76daa9	0.060267124
58	0x3e07dd9c	0.13268131
59	0x3c27a59f	0.010232358
60	0x3deafc12	0.1147386
61	0x3caf81e6	0.021424245
62	0xbcad997b	-0.02119135
63	0x3ecb683a	0.39727956
64	0x3f187d7b	0.5956647
65	0xbd7d0dfb	-0.06178091
66	0xbe0eb583	-0.13936429
67	0xbf06d5a2	-0.5266973
68	0xbf380339	-0.7187992
69	0x3e12ac01	0.14323427
70	0x3f0488e7	0.51771396
71	0x3e826dc0	0.25474358
72	0xbf1c8f11	-0.611558
73	0xbed37307	-0.41298696
74	0xbd80a3da	-0.06281252
75	0xbc2d5647	-0.010579652
76	0xbf08c2bf	-0.5342216
77	0xbf59e35c	-0.8511255
78	0xbe55acf2	-0.20866755
79	0x3ed7987e	0.4210853
80	0xbef38e59	-0.4756954
81	0x3d5f0ab2	0.05445356
82	0x3d9d6f3e	0.076872334
83	0xbb583fab	-0.0032996933
84	0x3dc1fef5	0.09472457
85	0x3dda13c6	0.10648303
86	0x3904f7d5	0.00012680826
87	0xbb5b932b	-0.0033504467
88	0x3d1dd973	0.038537454
89	0x3c38c240	0.011276782
90	0xbdb097ed	-0.086227275
91	0xbdaa2de7	-0.083095364
92	0x3ca8b539	0.020594226
93	0x3ca62011	0.020278962
94	0xbd827c5b	-0.06371375
95	0xbd90a144	-0.07062009
96	0xbd970a62	-0.07375027
97	0xbd7c47bb	-0.061591845
98	0xbcafb610	-0.021449119
99	0xbd2dae2a	-0.042402424
100	0xbe112248	-0.14173234
101	0xbdc65a85	-0.09685234
102	0x3cae7586	0.021296274
103	0xbbbdf452	-0.0057969475
104	0xbd81dc77	-0.063408785
105	0xbe05bb27	-0.13059674
106	0xbde21ce4	-0.11040667
107	0xbe1310c8	-0.1436187
108	0xbdb82ca5	-0.0899289
109	0xbd2072d1	-0.039171997
110	0x3b80867b	0.0039222813
111	0xbc690ce2	-0.014224263
112	0xbe0e482e	-0.13894722
113	0xbdf86b20	-0.121298075
114	0xbd94cd0b	-0.07265671
115	0x3d3e0b3a	0.046397425
116	0xbd5de278	-0.054171056
117	0xbda8f214	-0.08249298
118	0xbc390f2b	-0.01129512
119	0xbdf077ef	-0.117416255
120	0xbdea07fb	-0.114273034
121	0x3c8a943b	0.016916385
122	0xbe08f125	-0.1337324
123	0xbd89520c	-0.06705102
124	0xbe1e2ce0	-0.15446806
125	0xbca23d9b	-0.019804766
126	0x3bfc75d5	0.0077044764
127	0xbbfc8d34	-0.0077072624
128	0xbe04623f	-0.12928103
129	0xbe2c734a	-0.16840854
130	0xbe06ad32	-0.13152006
131	0x3cbc1aa1	0.022961916
132	0xbcd75fd8	-0.026290819
133	0x3d287bf6	0.041133843
134	0x3c1795e9	0.00925205
135	0xbe4a2a3e	-0.19742677
136	0xbe8ac7e4	-0.2710563
137	0xbccccee9	-0.025001006
138	0xbe1fd316	-0.15607867
139	0xbe70a833	-0.23501663
140	0xbc4765be	-0.012170253
141	0xbea08035	-0.31347814
142	0xbbcc3d04	-0.0062328596
143	0xbdedeb6b	-0.11617168
144	0xbdb2b3c4	-0.08725694
145	0xbe138bcb	-0.14408796
146	0xbe128cb9	-0.14311494
147	0xbd191f31	-0.037383262
148	0xbdcc5cce	-0.099786386
149	0xbbc2041f	-0.0059209014
150	0xbdd623dd	-0.10456059
151	0xbe138e40	-0.14409733
152	0xbdb48297	-0.088139705
153	0xbea3ab66	-0.31966704
154	0xbdb48740	-0.088148594
155	0xbd376333	-0.044772338
156	0xbd307907	-0.04308417
157	0xbdf15f88	-0.11785799
158	0xbb57cc47	-0.0032928155
159	0xbded700b	-0.11593636
160	0x3b42a7ae	0.0029701996
161	0xbdfc0079	-0.12304778
162	0x3cfac36e	0.030610766
163	0xbe1df047	-0.1542369
164	0xbce4922e	-0.027901735
165	0x3d93dd12	0.072199
166	0xbd7cc695	-0.06171282
167	0xbd293717	-0.041312303
168	0xbe67cc58	-0.22636545
169	0xbe9c00e5	-0.30469432
170	0xbe44733f	-0.19184588
171	0xbdd64e5d	-0.10464165
172	0x3d860463	0.065438055
173	0x3da18685	0.07886986
174	0x3dcc2849	0.09968621
175	0xbccbaf58	-0.024863884
176	0xbdb15fe2	-0.08660866
177	0x3cc224cc	0.023699187
178	0x3d6e8392	0.058230944
179	0xbdd6dd8c	-0.104914755
180	0xbeb2f101	-0.34949496
181	0xbdfbe1eb	-0.1229895
182	0xbd8d89f1	-0.06911076
183	0xbec13fc5	-0.37743965
184	0x3de2ec6a	0.11080249
185	0xbdbdcb95	-0.09267346
186	0xbeda2b54	-0.42611182
187	0xbe6fd2de	-0.23420283
188	0xbe412934	-0.18863374
189	0x3d4eeab9	0.050516818
190	0xbe5b34f3	-0.21406917
191	0xbe91e278	-0.28493094
192	0xbddc6951	-0.10762275
193	0xbeb822fe	-0.35964197
194	0x3da1471c	0.07874891
195	0xbf19a1d5	-0.6001256
196	0xbeb12a65	-0.34602657
197	0xbe7aaba0	-0.24479532
198	0xbdc2b297	-0.095067196
199	0xbdc0a61b	-0.09406682
200	0xbea54dc5	-0.32285896
201	0xbda88dab	-0.08230146
202	0xbdc51779	-0.09623618
203	0xbec07705	-0.37590805
204	0xbed35f62	-0.4128371
205	0x3d7175d1	0.05895025
206	0x3e3cf3d9	0.18452395
207	0xbe968683	-0.293995
208	0x3e2185a9	0.15773644
209	0xbea295e6	-0.31754988
210	0x3d1cb2eb	0.038256567
211	0xbe8897cb	-0.2667831
212	0xbed5cbd9	-0.41757086
213	0xbc94fae5	-0.018186042
214	0x3d23f3e3	0.04002751
215	0xbe98de15	-0.29856935
216	0x3d90bae5	0.07066897
217	0x3dd4d4e3	0.103921674
218	0xbc8450b0	-0.016151756
219	0xbd1bf11d	-0.03807174
220	0xbe083e1e	-0.13304946
221	0xbcb1f340	-0.021722436
222	0x3c945e4d	0.018111372
223	0xbbc1d3bc	-0.0059151333
224	0xbe01bf43	-0.12670617
225	0xbdad1c06	-0.08452611
226	0xbeacf8c8	-0.33783555
227	0xbebb94ce	-0.36636966
228	0xbda6947b	-0.08133789
229	0x3e72d5df	0.23714398
230	0xbe45f3ae	-0.19331238
231	0xbe6d0b7f	-0.23148917
232	0x3e011390	0.12605119
233	0xbeb2ae37	-0.3489854
234	0xbbf7a6ef	-0.007557742
235	0xbe0db9c6	-0.13840398
236	0xbead61cc	-0.33863676
237	0xbc1ac131	-0.0094454745
238	0xbdded173	-0.10879793
239	0xbe946503	-0.28983316
240	0xbeb9d61b	-0.36296162
241	0xbe88a6e1	-0.26689819
242	0x3da70237	0.08154719
243	0xbdc0712c	-0.09396586
244	0xbdae81b2	-0.08520831
245	0xbd67305f	-0.056442615
246	0x3d2c2f7b	0.04203747
247	0xbd508b6e	-0.05091422
248	0xbcca1c11	-0.024671586
249	0xbd08f9ef	-0.03344148
250	0xbcfcc983	-0.030857807
251	0xbb139aed	-0.0022522763
252	0xbe2526b5	-0.16128047
253	0xbe3ad64d	-0.18245812
254	0xbebc9255	-0.36830392
255	0xbe984e37	-0.29747173

conv_block_1.2.bias f4 [10]
0	0xbe89d218	-0.269181
1	0xbe1f55dc	-0.15560097
2	0xbed13900	-0.408638
3	0x3cb5ec4c	0.022207402
4	0xbdcda973	-0.100420855
5	0x3d96e2bb	0.07367464
6	0xbe2a13a6	-0.16609058
7	0xbf2664ac	-0.64997363
8	0xbf579e62	-0.8422605
9	0xbed6e1c2	-0.41969115

conv_block_2.0.weight f4 [10, 10, 3, 3]
0	0x3ce067f4	0.027393319
1	0xbecd55c7	-0.40104505
2	0xbd82aab3	-0.063802145
3	0x3ac99940	0.0015380755
4	0xbe57dc96	-0.2108024
5	0xbe2a3fbf	-0.1662588
6	0xbd97a46e	-0.07404409
7	0xbe461062	-0.19342187
8	0xbe9369a9	-0.2879155
9	0x3d6fbcb2	0.058529563
10	0xbdc912d5	-0.09818045
11	0xbd24c290	-0.04022461
12	0xbdb98fbb	-0.090606175
13	0xbd889c34	-0.066704184
14	0x3d707b1a	0.05871115
15	0xbc80f05c	-0.015739612
16	0x3d375f2e	0.044768505
17	0xbd7d7196	-0.061875902
18	0x3c833824	0.01601798
19	0xbd82935c	-0.06375763
20	0x3d57d4de	0.05269324
21	0xbd3cd755	-0.046103794
22	0xbcd888a0	-0.026432335
23	0xbdbb4d7a	-0.09145637
24	0x39b69200	0.00034822524
25	0x3dccf8d7	0.100084
26	0x3d5190aa	0.051163353
27	0xbdecd8d1	-0.11564792
28	0xbd6fbc03	-0.05852891
29	0xbec57b96	-0.3857085
30	0xbe8fccd2	-0.28085953
31	0xbe3c8c59	-0.18412913
32	0xbebf91f0	-0.3741603
33	0xbd19f173	-0.03758378
34	0xbe94c773	-0.29058418
35	0xbeda7d89	-0.426739
36	0xbe91a69c	-0.28447425
37	0xbeabb075	-0.33533064
38	0xbea4eeca	-0.32213432
39	0xbeaf4657	-0.34233353
40	0xbe87fb51	-0.26558927
41	0xbeb8bf4f	-0.36083457
42	0x3e8e72a5	0.27821842
43	0xbecffbbf	-0.40621755
44	0x3d255457	0.040363636
45	0x36aa4000	5.0738454e-06
46	0xbc6a6f08	-0.0143086985
47	0xbdd45f2e	-0.103697166
48	0xbce25da8	-0.02763255
49	0xbea2a576	-0.31766862
50	0xbee0d70d	-0.4391407
51	0xbe6a740d	-0.22895832
52	0xbe2d735d	-0.16938539
53	0xbe2106d2	-0.15725258
54	0xbe09f1fd	-0.13471217
55	0xbb44186d	-0.0029921785
56	0xbee15739	-0.44011858
57	0xbe263592	-0.16231373
58	0xbe232652	-0.15932587
59	0xbd8adb7c	-0.067801446
60	0x3c830b83	0.0159967
61	0xbe215c11	-0.15757777
62	0xbda5fccc	-0.08104858
63	0x3d46626a	0.0484337
64	0xbdc81487	-0.0976954
65	0xbc665634	-0.014058638
66	0xbdbd0c95	-0.092309155
67	0xbd7d0356	-0.06177076
68	0xbdbbe552	-0.09174599
69	0xbe95ddef	-0.29270884
70	0xbdec4d44	-0.11538175
71	0xbdc39d50	-0.09551489
72	0xbd89db5c	-0.067312926
73	0xbe1e7d21	-0.1547742
74	0xbd59483b	-0.0530474
75	0xbe0480fc	-0.12939829
76	0x3d13c76f	0.036078867
77	0x3ae3a247	0.0017367088
78	0xbe8df07c	-0.27722538
79	0xbe281e61	-0.16417839
80	0xbeaca6ef	-0.3372111
81	0xba6b7250	-0.00089815725
82	0xbe1a0c6f	-0.15043806
83	0xbcb5da36	-0.022198778
84	0x3cef3a37	0.029202564
85	0xbd5b8e4e	-0.05360251
86	0xbdfcdea8	-0.12347156
87	0x3cd8ffd9	0.026489185
88	0xbc7559fb	-0.014975066
89	0x3c20dd00	0.0098183155
90	0xbec9a73c	-0.39385402
91	0xbf5b59c9	-0.85683876
92	0xbfad7a23	-1.3552898
93	0xbdf3db53	-0.11907067
94	0xbff548da	-1.9162858
95	0xbec25392	-0.37954384
96	0xbeb9e217	-0.36305305
97	0xbddb7b15	-0.107168354
98	0x3dfa01f4	0.12207404
99	0x3db5b0b4	0.08871594
100	0x3d0ac63a	0.03388045
101	0x3c602a0b	0.013681899
102	0xbdc92676	-0.09821789
103	0x3e14aee4	0.1451984
104	0x3e503f8e	0.20336744
105	0xbdc68189	-0.096926756
106	0xbc110144	-0.008850399
107	0x3e4019c9	0.18759836
108	0x3cf4a504	0.029863842
109	0x3eb42724	0.35186112
110	0xbe84b17a	-0.25916654
111	0xbe9b9696	-0.30388325
112	0x3e5dd809	0.21664442
113	0xbe8a9ff8	-0.2707517
114	0xbe305be6	-0.17222556
115	0x3e2a43c4	0.16627413
116	0xbe5ea75f	-0.21743535
117	0xbedb8b2b	-0.42879614
118	0x3e21fc68	0.15818942
119	0x3e03acdc	0.1285891
120	0xbda45f99	-0.08026046
121	0xbeb87ff3	-0.36035118
122	0x3ebf6caf	0.37387607
123	0xbe9bb9b0	-0.30415106
124	0xbe04f7b1	-0.12985112
125	0xbf2e8ce9	-0.6818376
126	0x3d68ce6c	0.056837484
127	0x3ec72cdf	0.3890142
128	0xbe384e16	-0.17998537
129	0x3e67d813	0.2264102
130	0x3e0b4851	0.13601805
131	0xbf8a0db3	-1.0785431
132	0xbdf70e97	-0.1206333
133	0xbf590f04	-0.8478854
134	0xbf30c510	-0.69050694
135	0xbe87f9d4	-0.2655779
136	0xbe2465c0	-0.1605444
137	0x3df28d12	0.11843313
138	0x3d77c472	0.06049008
139	0x3ea8c9de	0.32966512
140	0x3f0f0cf0	0.55879116
141	0xbe879f0b	-0.26488528
142	0x3d7bf19a	0.061509706
143	0xbd5b8d61	-0.053601626
144	0xbff5c2b4	-1.9200044
145	0xbf3d1d3a	-0.7387272
146	0xbca9cdb3	-0.020727968
147	0xbfc216c6	-1.51632
148	0xbfe5ada0	-1.7943611
149	0x3d4ab5bf	0.049489733
150	0xbdd0d6be	-0.10197209
151	0xbdd435f7	-0.103618555
152	0x3e0b3d04	0.13597494
153	0x3e93579b	0.28777775
154	0xbe68c06c	-0.22729653
155	0xbe760e07	-0.24028789
156	0xbe3220d5	-0.17395337
157	0x3e09ebb4	0.1346882
158	0xbe91c90e	-0.28473705
159	0xbf02cfb2	-0.5109817
160	0xbe98ffcd	-0.2988266
161	0xbedff347	-0.43740293
162	0x3f264606	0.649506
163	0xbfd5148c	-1.6646895
164	0x3dcd475a	0.10023375
165	0x3e3cb49d	0.18428273
166	0x3f505aa2	0.81388295
167	0x3e890a91	0.26765874
168	0xbf536093	-0.82569236
169	0x3f18cf04	0.5969088
170	0xbf1a55db	-0.60287255
171	0x3e3c956b	0.18416373
172	0xbd01198f	-0.031518515
173	0xbcccec67	-0.02501507
174	0x3ea659f1	0.32490495
175	0x3c951eb9	0.018203126
176	0x3d5ded6c	0.0541815
177	0xbe624da2	-0.22099927
178	0x3d886845	0.06660513
179	0x3e01067e	0.12600133
180	0xbdf13f1a	-0.11779614
181	0xbfab0bbf	-1.336296
182	0xbfcd185c	-1.6023059
183	0xbe35216d	-0.17688532
184	0xbf29b7c1	-0.6629601
185	0xbfdd5ff0	-1.7294903
186	0x3f1d8d08	0.6154332
187	0xbd5a703f	-0.053329702
188	0xbc9ab450	-0.018884808
189	0x3ca72be4	0.02040667
190	0x3c3524ef	0.011056169
191	0x3cd33102	0.025780205
192	0x3bea1dd5	0.0071446695
193	0x3e2e7412	0.17036465
194	0x3d51c1e8	0.051210314
195	0xbcf30d64	-0.029669471
196	0x3db6936e	0.08914839
197	0x3d81df56	0.06341426
198	0xbe6fc1ce	-0.23413774
199	0x3f195111	0.5988932
200	0x3e9d9234	0.30775607
201	0x3e80a33d	0.2512454
202	0x3e109335	0.14118655
203	0x3e9e8dcb	0.30967554
204	0x3e1d8e18	0.15386236
205	0x3c032ed7	0.008006773
206	0xbe059e11	-0.13048579
207	0x3caead16	0.021322768
208	0x3e5fb367	0.2184578
209	0x3e61a4f8	0.22035587
210	0xbf119468	-0.56867075
211	0xbe9a7b45	-0.30172172
212	0xbe3f8c5a	-0.18705884
213	0x3f0485f7	0.51766914
214	0xbf2b8188	-0.66994524
215	0xbe68287f	-0.22671698
216	0xbbd264c7	-0.006420705
217	0xbe34b04b	-0.17645375
218	0xbe12f496	-0.14351115
219	0x3e8f0512	0.27933556
220	0x3ed2952f	0.41129443
221	0xbf1f737c	-0.6228559
222	0xbe9463f5	-0.2898251
223	0x3ebbb167	0.36658785
224	0xbe781a08	-0.2422868
225	0x3e15b484	0.14619642
226	0xbfc80f86	-1.5629737
227	0xbe9a5195	-0.30140367
228	0xbd483f84	-0.0488887
229	0xbee800e8	-0.4531319
230	0x3edf4962	0.43610674
231	0x3f4e0190	0.80471134
232	0x3ed13d2e	0.4086699
233	0xbe153a7a	-0.14573088
234	0xbf1a5e48	-0.6030011
235	0xbf93cbc9	-1.1546565
236	0xbea62173	-0.32447395
237	0xbf5c8d69	-0.86153275
238	0xbfc2c404	-1.5216069
239	0xbfa1cdaf	-1.2640895
240	0x3e149dae	0.14513275
241	0x3ca41ced	0.020033324
242	0xbf16ceea	-0.58909476
243	0xbe335ef0	-0.17516685
244	0xbf00695a	-0.50160754
245	0xbe2c5d5a	-0.16832486
246	0xbe5918af	-0.21200822
247	0x3ecf982a	0.4054578
248	0x3f514b07	0.8175511
249	0x3ed5327a	0.41640073
250	0x3e5bff66	0.21484146
251	0x3ef234dc	0.47305954
252	0xbf0aa111	-0.5415202
253	0xbed9a119	-0.4250572
254	0x3f04a9e5	0.5182174
255	0xbefdf185	-0.49598327

conv_block_2.0.bias f4 [10]
0	0xbef45778	-0.47722983
1	0x3e86536a	0.26235515
2	0xbe0554fb	-0.13020699
3	0xbea35131	-0.31897882
4	0xbf10eb0a	-0.5660864
5	0xbe85600c	-0.2604984
6	0xbe2fb8a0	-0.17160273
7	0x3e1b93b0	0.15193057
8	0x3ea3d0c6	0.3199522
9	0xbea1e49f	-0.31619737

conv_block_2.2.weight f4 [10, 10, 3, 3]
0	0xbd830e2c	-0.063991874
1	0xbda15d20	-0.0787909
2	0x3d242588	0.040074855
3	0xbdb12edf	-0.08651518
4	0x3d8592ed	0.065221645
5	0xbd85d9dc	-0.06535694
6	0x3d09e206	0.03366282
7	0xbd336b52	-0.04380352
8	0x3daf1e65	0.08550719
9	0xbf0ff37f	-0.5623092
10	0xbf2df561	-0.67952543
11	0xbec3e3e9	-0.3825982
12	0xbec922e6	-0.39284438
13	0xbf300248	-0.6875348
14	0xbea9accc	-0.33139646
15	0xbf067450	-0.5252123
16	0x3e09550f	0.13411354
17	0xbeccfaa5	-0.40034977
18	0xbe75259d	-0.2394013
19	0xbe733a97	-0.23752819
20	0xbda37f69	-0.07983286
21	0xbeb64c09	-0.35604885
22	0xbe8f40a3	-0.27979
23	0xbe25d248	-0.16193497
24	0xbdc876d8	-0.09788293
25	0xbe88e7a9	-0.26739243
26	0xbec78fb5	-0.38976827
27	0xbdade11c	-0.08490202
28	0x3dd07cbb	0.101800404
29	0xbd81a254	-0.0632979
30	0xbd9b9b4c	-0.0759798
31	0xbba8e270	-0.0051539466
32	0xbd0a34ce	-0.033741765
33	0xbc6c4708	-0.014421232
34	0xbd90a2a0	-0.07062268
35	0x3d1bc92a	0.038033642
36	0xbdb9c25a	-0.09070273
37	0x3c0be078	0.008537404
38	0x3d7bf266	0.061510466
39	0x3ca5e974	0.02025292
40	0x3c657838	0.014005713
41	0x3c7c9a10	0.015417591
42	0xbcfcf76c	-0.030879699
43	0xbca47f64	-0.020080276
44	0xbd36119a	-0.04445038
45	0xbe5bf28d	-0.21479245
46	0xbefc16bf	-0.49236104
47	0x3e3f5f2f	0.18688653
48	0xbeb02477	-0.3440282
49	0xbd6c3c51	-0.05767471
50	0xbd13b80e	-0.0360642
51	0xbe8b4ea1	-0.27208427
52	0xbea01616	-0.3126685
53	0xbe957739	-0.29192522
54	0xbf025a83	-0.5091936
55	0xbe4c2f42	-0.19939902
56	0xbdeff800	-0.11717224
57	0xbf01020e	-0.5039376
58	0xbea8f9e6	-0.33003157
59	0xbe87a39d	-0.26492015
60	0xbf25c7c4	-0.64757943
61	0xbe6cdcf1	-0.23131157
62	0xbe8022a9	-0.25026444
63	0xbe24c601	-0.16091157
64	0xbd1b8c0b	-0.037975352
65	0x3bc494a7	0.005999166
66	0xbe20bff7	-0.15698229
67	0xbe01f626	-0.12691554
68	0xbe1cf250	-0.1532681
69	0xbe12c727	-0.14333783
70	0xbeba8ec8	-0.36437058
71	0xbe6b3772	-0.2297037
72	0xbd08b3eb	-0.03337471
73	0xbdb2f4d0	-0.087381005
74	0xbdfae32d	-0.122503616
75	0xbebdb405	-0.37051407
76	0xbea700df	-0.32617852
77	0xbe8ff0aa	-0.281133
78	0xbeff0d69	-0.4981492
79	0xbe93859b	-0.2881287
80	0xbe5846b3	-0.2112072
81	0xbdfd50ee	-0.12368952
82	0xbc283c16	-0.010268232
83	0x3c84096d	0.016117776
84	0x3d5f6e3f	0.0545485
85	0xbe092eb4	-0.13396722
86	0xbda160cc	-0.07879791
87	0x3d55181d	0.05202495
88	0xbd82d771	-0.063887484
89	0xbe0e1a74	-0.13877279
90	0x3ecb269b	0.3967789
91	0x3e97db17	0.2965934
92	0xbe904cda	-0.28183633
93	0xbd9f3212	-0.07773222
94	0xbe7b5e30	-0.24547648
95	0xbdcbef79	-0.09957785
96	0x3db32ee5	0.08749179
97	0xbd4e4311	-0.05035693
98	0xbd32ed7d	-0.043683518
99	0x3e069175	0.13141425
100	0x3e6fb720	0.234097
101	0x3e4b0a47	0.19828139
102	0x3ed1c8c7	0.40973493
103	0x3e1166a1	0.14199306
104	0xbf8bfc55	-1.0936381
105	0xbda77de9	-0.08178312
106	0xc04010cd	-3.0010254
107	0xbfaa2284	-1.3291783
108	0xbe4b11d9	-0.19831027
109	0x3ddb6c6f	0.107140414
110	0x3d0f7e62	0.035032637
111	0x3e58d2b9	0.21174134
112	0x3cad15b5	0.021128515
113	0xbeb04eda	-0.3443516
114	0xbf4e65d4	-0.8062413
115	0xc0106ab0	-2.2565117
116	0xbf8a09ec	-1.0784278
117	0xbddc27dd	-0.10749791
118	0xbc3b3e68	-0.011428453
119	0x3cbc7e79	0.023009526
120	0xbd31720f	-0.043321665
121	0xbe020163	-0.12695841
122	0xbce7d057	-0.028297586
123	0xbdbda072	-0.09259118
124	0x3da82549	0.082102366
125	0x3d5d95ef	0.054098066
126	0x3e91b5c5	0.28458992
127	0xbcdfa5aa	-0.027300674
128	0xbd8e9a65	-0.06963042
129	0xbd9056d9	-0.07047815
130	0xbeb143a0	-0.34621906
131	0x3e078f82	0.13238338
132	0x3e7e6c3f	0.2484598
133	0xbe77e36b	-0.24207847
134	0xbe31801c	-0.17334026
135	0x3d82cd0c	0.06386766
136	0xbde117dc	-0.10990879
137	0x3e8cbc3c	0.2748736
138	0xbba7abdf	-0.005116924
139	0xbf06bcfd	-0.52632123
140	0xbf03e5f9	-0.51522785
141	0xbe99cdbd	-0.30039778
142	0xbf45b2b9	-0.77225834
143	0xbb4ababe	-0.003093406
144	0xbedd1222	-0.43177897
145	0xbf85b18d	-1.0444809
146	0xbf6eede9	-0.9333177
147	0xbeb076da	-0.34465677
148	0xbf35fa0c	-0.71084666
149	0xbbb5ce87	-0.0055483016
150	0xbf768cef	-0.963088
151	0x3f0a07d8	0.5391822
152	0x3ef17098	0.47156215
153	0x3e5d65ec	0.21620911
154	0xbe064c44	-0.1311503
155	0xbf18b531	-0.59651476
156	0x3f08fcb3	0.5351059
157	0x3eb9baa0	0.36275196
158	0xbf34afbc	-0.7058065
159	0x3e1ca333	0.1529663
160	0xbea843cf	-0.32864234
161	0x3e766e48	0.24065506
162	0xbf4f1628	-0.8089318
163	0xbfcc5c19	-1.5965606
164	0xbf940b53	-1.1565956
165	0xbfce8391	-1.6133901
166	0xbfa229dc	-1.2669024
167	0xbdc3d46f	-0.09562003
168	0xbeb99b8b	-0.36251482
169	0x3e35210e	0.1768839
170	0x3f0cc1dc	0.54983306
171	0xbda93034	-0.08261147
172	0xbc7b3ce9	-0.015334346
173	0x3ce0de98	0.027449891
174	0xbdfe0808	-0.124038756
175	0xbdd0fbe3	-0.102042936
176	0xbc69e6b4	-0.014276195
177	0xbd39e87b	-0.045387726
178	0xbd92c12c	-0.07165751
179	0xbe213624	-0.1574331
180	0x3cf5ce03	0.03000546
181	0x3eb347eb	0.35015807
182	0xbeb22721	-0.34795478
183	0xbeb428d3	-0.35187396
184	0x3e95639c	0.29177558
185	0x3d51d92e	0.05123251
186	0xbd69fcb4	-0.057125762
187	0x3ec8783e	0.39154238
188	0xbd638253	-0.05554421
189	0xbf4ad575	-0.7923196
190	0xbe532247	-0.20618545
191	0xbe3658b8	-0.17807281
192	0xbfa34310	-1.2754841
193	0x3ea43d02	0.32077795
194	0x3e40f691	0.18844058
195	0xbdba15bd	-0.090861775
196	0x3e656880	0.22403145
197	0x3e01fc65	0.12693937
198	0xbee8bc6d	-0.45456257
199	0x3e470cd2	0.19438484
200	0xbd466b21	-0.04844201
201	0xbe6f4d0f	-0.2336924
202	0x3d88c687	0.06678491
203	0x3ee09985	0.43867126
204	0xbe6963b0	-0.22791934
205	0xbe2db186	-0.16962251
206	0xbdc08402	-0.094001785
207	0xbde4f9b6	-0.11180441
208	0x3cd4b521	0.025965275
209	0x3b8f0776	0.004364903
210	0x3cb23a51	0.021756323
211	0xbd743f54	-0.059630707
212	0xbe051de9	-0.12999691
213	0x3cc315e0	0.023814142
214	0xbdc78c91	-0.09743608
215	0xbcc365f0	-0.023852319
216	0x3ec05fd5	0.37573114
217	0xbe66daec	-0.2254445
218	0x3ebcbb42	0.36861616
219	0x3e021210	0.12702203
220	0x3e746b60	0.23869085
221	0xbe28e69c	-0.1649422
222	0xbe29253c	-0.1651811
223	0xbe15e621	-0.14638568
224	0x3e63237f	0.2218151
225	0xbee20430	-0.4414382
226	0xbedfefb5	-0.4373757
227	0xbf63ddb1	-0.8901015
228	0xbef80a1c	-0.48445213
229	0xbea794bb	-0.3273066
230	0xbfd562e5	-1.6670805
231	0xbfb6d0db	-1.4282488
232	0xbe970424	-0.29495347
233	0xbeb2aefc	-0.34899127
234	0x3da5d0b8	0.080964506
235	0xbe99b6bd	-0.3002223
236	0xbf19b5f5	-0.6004327
237	0xbeb8ada9	-0.36069992
238	0xbfe9a43b	-1.8253244
239	0xbe03f553	-0.12886553
240	0xbf24a4c1	-0.64313895
241	0xbe6e97f7	-0.23300157
242	0xbe163ebe	-0.14672372
243	0x3e0da477	0.1383227
244	0xbe35abe4	-0.17741352
245	0xbe24c256	-0.16089758
246	0x3f056d5e	0.52120006
247	0xbebb9780	-0.36639023
248	0xbf5187b7	-0.8184771
249	0xbf1ad8a8	-0.6048684
250	0x3f052498	0.5200896
251	0xbf3db20e	-0.74099815
252	0xbfc43df9	-1.5331413
253	0xbf5dfbff	-0.8671264
254	0xbf8070b6	-1.0034397
255	0x3ebd9a4d	0.37031785

conv_block_2.2.bias f4 [10]
0	0xbf0320c8	-0.51221895
1	0xbd468313	-0.048464846
2	0x3e079392	0.13239887
3	0xbe6c75ee	-0.23091862
4	0xbdf2fded	-0.11864839
5	0xbdff9abd	-0.12480686
6	0xbddcefbb	-0.107879125
7	0xbcb56783	-0.022144085
8	0xbe908141	-0.28223613
9	0x3d6d7954	0.057977036

classifier.1.weight f4 [10, 490]
0	0x3e8e4193	0.27784404
1	0x3df876e0	0.121320486
2	0x3bd99a7c	0.0066407304
3	0x3e4b75a4	0.19869095
4	0x3db31073	0.08743372
5	0x3c87bbb9	0.016569005
6	0x3cb3afa6	0.021934342
7	0x3e206682	0.15664104
8	0xbdf951ad	-0.121737815
9	0xbe2d7d0a	-0.1694223
10	0x3db1e9df	0.086871855
11	0xbd907ce7	-0.07055073
12	0xbd16bc40	-0.036800623
13	0x3dfe97d6	0.12431304
14	0x3eaccbe7	0.33749315
15	0xbe30deeb	-0.17272536
16	0x3bba51bb	0.0056860126
17	0xbdfed2c2	-0.124425426
18	0xbe392ce6	-0.18083534
19	0xbcffee2d	-0.0312415
20	0xbdd2733e	-0.10275887
21	0x3e3e79da	0.1860117
22	0x3de597a5	0.112105645
23	0xbd84804a	-0.06469782
24	0xbce47ef9	-0.027892577
25	0xbd47684a	-0.048683442
26	0xbd785fd7	-0.060638275
27	0x3d84e83f	0.0648961
28	0x3e58d735	0.21175845
29	0xbe43ccb9	-0.19121064
30	0xbd8cadf3	-0.06869116
31	0xbdc8d6e4	-0.09806612
32	0xbc860515	-0.016359845
33	0xbe19a4b8	-0.15004241
34	0xbdc2b9e5	-0.09508113
35	0x3e2c86ee	0.16848347
36	0xbdfc0cc5	-0.12307123
37	0xbdaf723a	-0.08566709
38	0xbd7f2ee3	-0.062300574
39	0xbeba259c	-0.3635682
40	0x3e794fb9	0.24346818
41	0xbc960903	-0.018314844
42	0x3eb36801	0.35040286
43	0x3d30f9fc	0.043207154
44	0xbdbce46b	-0.09223255
45	0xbda58554	-0.08082071
46	0x3d59f8a7	0.05321565
47	0x3dc05316	0.093908474
48	0xbd600234	-0.0546896
49	0xbda99754	-0.08280817
50	0xbf9421a1	-1.1572763
51	0xbe80a84d	-0.25128403
52	0xbf941381	-1.1568452
53	0x3ea4d497	0.32193443
54	0xbe9b03e5	-0.3027641
55	0x3f141d7e	0.578575
56	0x3ed5fa2a	0.41792423
57	0xbdcbd7a2	-0.09953238
58	0xbeff7698	-0.49895167
59	0x3ebe11ab	0.37122855
60	0xbdee65a0	-0.11640477
61	0x3dac9fb7	0.08428901
62	0x3ed12906	0.4085161
63	0x3f08b7f9	0.5340572
64	0x3f9689ac	1.1760764
65	0x3d581342	0.05275274
66	0xbe28f813	-0.16500883
67	0x3d67ad39	0.056561682
68	0x3f515378	0.8176799
69	0x3f174149	0.5908399
70	0x3fac303f	1.3452224
71	0x3dfa92bf	0.12235021
72	0xbf0d7547	-0.55257076
73	0x3e94ef2f	0.29088733
74	0xbf7f9c97	-0.9984831
75	0x3eaa476a	0.3325761
76	0xbbefe306	-0.0073207645
77	0x3daefe35	0.0854458
78	0xbe074ffb	-0.13214104
79	0x3f052517	0.5200972
80	0xbe885a20	-0.2663126
81	0xbfb8e6e3	-1.4445461
82	0xbd883300	-0.066503525
83	0x3cdd76f8	0.027034268
84	0x3f827a04	1.0193486
85	0xbd3eeae7	-0.04661074
86	0xbf1c50e1	-0.6106091
87	0x3f72985f	0.9476375
88	0x3f3dbf7e	0.7412032
89	0xbf4850b8	-0.7824817
90	0xbf125386	-0.57158697
91	0x3e49b451	0.19697692
92	0xbf2b47c5	-0.66906387
93	0xbf22d3cd	-0.6360443
94	0xbea827aa	-0.3284276
95	0x3f0dc90a	0.55384886
96	0xbeff07da	-0.49810678
97	0xbf7481b7	-0.9551043
98	0xbeaf200a	-0.3420413
99	0x3f257e77	0.64646095
100	0x3f81acae	1.0130823
101	0xbe4c9236	-0.1997765
102	0x3f2ddac3	0.6791193
103	0xbf00fa1c	-0.50381637
104	0x3f12d4ba	0.57355845
105	0x3f0cadd5	0.54952747
106	0x3f0bd0cd	0.5461548
107	0x3f27ec9e	0.65595424
108	0x3c4a6970	0.01235424
109	0x3e912370	0.2834735
110	0x3c86fa1e	0.016476687
111	0xbefca9fd	-0.4934844
112	0x3f953035	1.1655337
113	0xbe0cb3e2	-0.13740495
114	0x3d9b77fd	0.07591245
115	0xbee75ad5	-0.45186487
116	0x3edabba3	0.4272128
117	0xbac402b8	-0.0014954424
118	0xbff25419	-1.8931915
119	0x3f75fe86	0.96091497
120	0xbf999bd1	-1.2000676
121	0x3e814dad	0.25254574
122	0xbea58bf5	-0.3233334
123	0xbdc3a8e9	-0.095537014
124	0xbe7bad8f	-0.24577926
125	0xc00395ed	-2.0560257
126	0xbf379d35	-0.71724254
127	0xbfa46b5c	-1.2845263
128	0x3c69a33f	0.014260112
129	0xbe18f52b	-0.14937274
130	0xbe10e0e0	-0.14148283
131	0x3d1d28e2	0.038369067
132	0xc024c371	-2.5744288
133	0xbf42bec8	-0.7607236
134	0x3e6c3e9b	0.23070757
135	0xbea3490c	-0.31891668
136	0xbf688f77	-0.9084391
137	0xbdaebbcd	-0.08531914
138	0xbddd4c03	-0.10805514
139	0xbfd3bf44	-1.6542745
140	0xbef63c5e	-0.48092932
141	0xbc37439b	-0.011185552
142	0xbef2e185	-0.47437683
143	0xbf5d73d1	-0.86504847
144	0xbf3ebc5a	-0.7450615
145	0xbfae75ad	-1.3629662
146	0xbfca222f	-1.5791682
147	0xbdef95db	-0.116985045
148	0xbdfb4b1a	-0.12270184
149	0xbe9727ad	-0.29522458
150	0x3c33c7c3	0.01097292
151	0xbe143f9e	-0.14477393
152	0xbd147347	-0.03624275
153	0xbd5642ff	-0.052309986
154	0xbdb2f4f6	-0.08738129
155	0x3eeccea5	0.46251407
156	0xbee0f984	-0.43940365
157	0x3e5e22cd	0.21692963
158	0xbdad89a3	-0.08473518
159	0xbd81416f	-0.063113086
160	0x3dc3b953	0.09556832
161	0xbe12f28e	-0.1435034
162	0xbd7aec93	-0.06126077
163	0xbe368d77	-0.17827402
164	0x3db62f02	0.08895685
165	0xbdb1319f	-0.086520426
166	0x3d795909	0.060875926
167	0x3d8ec07b	0.069703065
168	0xbda55e7e	-0.080746636
169	0x3d6b4865	0.057442088
170	0x3ceb70e6	0.028740358
171	0x3abdb9e6	0.0014474958
172	0xbbb68114	-0.0055695865
173	0xbdd404e2	-0.10352494
174	0x3d80c628	0.06287795
175	0xbce6f0f2	-0.028191064
176	0xbe02c75f	-0.12771367
177	0x3d5450c6	0.051834844
178	0x3dd3bcb8	0.103387296
179	0xbcb128df	-0.021625934
180	0xbd36a457	-0.04459032
181	0xbd5ff8d5	-0.054680664
182	0xbcd84655	-0.026400724
183	0x3ec3a3d2	0.38210922
184	0x3d9208b0	0.07130563
185	0xbc9c986d	-0.019115651
186	0xbc8104e1	-0.015749397
187	0x3de4642c	0.11151919
188	0xbe409463	-0.18806605
189	0x3e3b0879	0.18264951
190	0xbea7b54b	-0.32755503
191	0x3e90b593	0.2826353
192	0xbe63f78f	-0.22262405
193	0xbcd7cb07	-0.026341928
194	0xbc6654f2	-0.0140583385
195	0xbe6a0ff0	-0.22857642
196	0xbf3c89ca	-0.7364775
197	0x3e19b154	0.15009052
198	0xbeacb81d	-0.33734217
199	0xbff24476	-1.8927143
200	0xbea6f76e	-0.3261065
201	0x3fa52581	1.290207
202	0xbebf8021	-0.37402442
203	0xbfbc4c26	-1.4710739
204	0xbef6a1e5	-0.4817039
205	0xbef415c8	-0.47672868
206	0xbfda7790	-1.7067738
207	0xbe31964e	-0.17342493
208	0x3e8eb244	0.2787038
209	0x3e9b74fd	0.30362692
210	0xbf6a39f5	-0.91494685
211	0xbe4ffe0d	-0.20311756
212	0xbe246240	-0.16053104
213	0xc0114bb2	-2.270245
214	0xbf417bd4	-0.7557957
215	0xbed4b62b	-0.41545233
216	0x3f03a6b5	0.5142625
217	0xbee57d56	-0.44822186
218	0xbf2e425e	-0.6807002
219	0xbfa7fddd	-1.3124348
220	0xbec665ff	-0.38749692
221	0x3f8ec051	1.115244
222	0x3c79d3b9	0.0152482325
223	0xbf5cc000	-0.8623047
224	0xbf7f6e80	-0.99777985
225	0xbf8d3b93	-1.1033806
226	0xbf89e7ba	-1.0773842
227	0xc01f2062	-2.4863515
228	0xbebb85b0	-0.36625433
229	0x3bc53d0e	0.006019241
230	0xbfa54163	-1.291058
231	0xbf604add	-0.8761423
232	0x3eb4bab6	0.352987
233	0xbfab86cf	-1.3400515
234	0x3ea1bc1a	0.31588823
235	0xbf1c8bca	-0.611508
236	0x3e1af31a	0.15131798
237	0xbf46cf3e	-0.77659976
238	0xbf49b877	-0.78797096
239	0xbd28bf9a	-0.04119835
240	0xbe7a5d75	-0.24449714
241	0x3d93760a	0.072002485
242	0xbfbd4c81	-1.4788972
243	0x3e48bda6	0.19603595
244	0xbfe1e2d9	-1.7647353
245	0xbf81c2fa	-1.0137627
246	0x3e4ff850	0.20309567
247	0x3e80cdc0	0.25156975
248	0x3ea8939f	0.32925126
249	0xbeae6a7d	-0.3406562
250	0x3e352d46	0.17693052
251	0x3eacada5	0.3372623
252	0x3ee10a99	0.43953398
253	0x3de180dc	0.11010906
254	0x3ef4a9ea	0.47785884
255	0x3d493004	0.049118057

classifier.1.bias f4 [10]
0	0x3e840f55	0.25792947
1	0xbec8e683	-0.39238366
2	0x3eb5c796	0.35503834
3	0x3d494d10	0.04914576
4	0xbf3200fd	-0.6953276
5	0xbf773f76	-0.9658121
6	0xbe96a230	-0.29420614
7	0x3fb57841	1.4177324
8	0x3f099836	0.5374788
9	0x3d21d85a	0.03951297
